[convolutional]
batch_normalize=1
feature=no
dilation=1
quantization=0
filters=32
size=3
stride=1
pad=1
activation=relu

[maxpool]
size=2
stride=2
pad=0
ceil_mode=0

[convolutional]
batch_normalize=1
feature=no
dilation=1
quantization=0
filters=64
size=3
stride=1
pad=1
activation=relu

[maxpool]
size=2
stride=2
pad=0
ceil_mode=0

[convolutional]
batch_normalize=1
feature=no
dilation=1
quantization=0
filters=64
size=3
stride=1
pad=1
activation=relu

[convolutional]
batch_normalize=1
feature=no
dilation=1
quantization=0
filters=128
size=3
stride=1
pad=1
activation=relu

[maxpool]
size=2
stride=2
pad=0
ceil_mode=0

[convolutional]
batch_normalize=1
feature=no
dilation=1
quantization=0
filters=64
stride=1
pad=1
size=3
activation=relu

[convolutional]
batch_normalize=1
feature=no
dilation=1
quantization=0
filters=64
size=3
stride=1
pad=1
activation=relu

[convolutional]
batch_normalize=1
feature=no
dilation=1
quantization=0
filters=128
size=3
stride=1
pad=1
activation=relu

[convolutional]
batch_normalize=1
feature=no
dilation=1
quantization=0
filters=32
size=3
stride=1
pad=1
activation=relu

[convolutional]
batch_normalize=1
feature=no
dilation=1
quantization=0
filters=16
size=3
stride=1
pad=1
activation=relu

[convolutional]
batch_normalize=1
feature=linear
dilation=1
quantization=0
filters=128
size=3
stride=1
pad=1
activation=relu
feature_idx=0

