#for fpga:无l2norm diliation
#vgg
[convolutional]
batch_normalize=1
filters=64
size=3
stride=1
pad=1
activation=relu

[convolutional]
filters=64
size=3
stride=1
pad=1
activation=relu
batch_normalize=1
[maxpool]
size=2
stride=2
pad=0
ceil_mode=0

[convolutional]
filters=128
size=3
stride=1
pad=1
activation=relu
batch_normalize=1

[convolutional]
filters=128
size=3
stride=1
pad=1
activation=relu
batch_normalize=1

[maxpool]
size=2
stride=2
pad=0
ceil_mode=0

[convolutional]
filters=256
stride=1
pad=1
size=3
activation=relu
batch_normalize=1

[convolutional]
filters=256
size=3
stride=1
pad=1
activation=relu
batch_normalize=1
[convolutional]
filters=256
size=3
stride=1
pad=1
activation=relu
batch_normalize=1

[maxpool]
size=2
stride=2
pad=0
ceil_mode=1

[convolutional]
filters=512
size=3
stride=1
pad=1
activation=relu
batch_normalize=1

[convolutional]
filters=512
size=3
stride=1
pad=1
activation=relu
batch_normalize=1
#原l2norm
[convolutional]
filters=512
size=3
stride=1
pad=1
activation=relu
feature=linear
batch_normalize=1
feature_idx=0

[maxpool]
size=2
stride=2
pad=0
ceil_mode=0

[convolutional]
filters=512
size=3
stride=1
pad=1
activation=relu
batch_normalize=1

[convolutional]
filters=512
size=3
stride=1
pad=1
activation=relu
batch_normalize=1
[convolutional]
filters=512
size=3
stride=1
pad=1
activation=relu
batch_normalize=1
#########上面和原vgg16reducefc相同，没到空洞

[maxpool]
size=3
stride=1
pad=1
ceil_mode=0

#原空洞
[convolutional]
filters=1024
size=3
stride=1
pad=1
activation=relu
batch_normalize=1

[convolutional]
filters=1024
size=1
stride=1
pad=0
activation=relu
feature=linear
batch_normalize=1
feature_idx=1
#extras
[convolutional]
filters=256
size=1
stride=1
pad=0
activation=relu
batch_normalize=1
[convolutional]
filters=512
size=3
stride=2
pad=1
activation=relu
feature=linear
batch_normalize=1
feature_idx=2
[convolutional]
filters=128
size=1
stride=1
pad=0
activation=relu
batch_normalize=1
[convolutional]
filters=256
size=3
stride=2
pad=1
activation=relu
feature=linear
batch_normalize=1
feature_idx=3
[convolutional]
filters=128
size=1
stride=1
pad=0
activation=relu
batch_normalize=1
[convolutional]
filters=256
size=3
stride=1
pad=0
activation=relu
feature=linear
batch_normalize=1
feature_idx=4
[convolutional]
filters=128
size=1
stride=1
pad=0
activation=relu
batch_normalize=1
[convolutional]
filters=256
size=3
stride=1
pad=0
activation=relu
feature=linear
batch_normalize=1
feature_idx=5